Model: "sequential"
_________________________________________________________________
Layer (type)                 Output Shape              Param #   
=================================================================
dense (Dense)                (None, 30)                90        
_________________________________________________________________
dense_1 (Dense)              (None, 30)                930       
_________________________________________________________________
dense_2 (Dense)              (None, 3)                 93        
=================================================================
Total params: 1,113
Trainable params: 1,113
Non-trainable params: 0
_________________________________________________________________
Model: "sequential_1"
_________________________________________________________________
Layer (type)                 Output Shape              Param #   
=================================================================
dense_3 (Dense)              (None, 30)                90        
_________________________________________________________________
dense_4 (Dense)              (None, 30)                930       
_________________________________________________________________
dense_5 (Dense)              (None, 3)                 93        
=================================================================
Total params: 1,113
Trainable params: 1,113
Non-trainable params: 0
_________________________________________________________________
no edit reward : -1.0
no edit reward : -1.0
no edit reward : -1.0
no edit reward : -1.0
no edit reward : -1.0
no edit reward : -1.0
no edit reward : -1.0
no edit reward : -1.0
no edit reward : -1.0
…
